{
  "nodes": [
    {
      "op": "null", 
      "name": "numerical_features-LnO6SrAteU", 
      "inputs": []
    }, 
    {
      "op": "null", 
      "name": "numerical_features-LnO6SrAteU_fullyconnected0_weight", 
      "attrs": {"num_hidden": "100"}, 
      "inputs": []
    }, 
    {
      "op": "null", 
      "name": "numerical_features-LnO6SrAteU_fullyconnected0_bias", 
      "attrs": {"num_hidden": "100"}, 
      "inputs": []
    }, 
    {
      "op": "FullyConnected", 
      "name": "numerical_features-LnO6SrAteU_fullyconnected0", 
      "attrs": {"num_hidden": "100"}, 
      "inputs": [[0, 0, 0], [1, 0, 0], [2, 0, 0]]
    }, 
    {
      "op": "Activation", 
      "name": "numerical_features-LnO6SrAteU_activation0", 
      "attrs": {"act_type": "relu"}, 
      "inputs": [[3, 0, 0]]
    }, 
    {
      "op": "Concat", 
      "name": "concat10432", 
      "attrs": {
        "dim": "1", 
        "num_args": "1"
      }, 
      "inputs": [[4, 0, 0]]
    }, 
    {
      "op": "null", 
      "name": "label_ndNH_weight", 
      "attrs": {"num_hidden": "1"}, 
      "inputs": []
    }, 
    {
      "op": "null", 
      "name": "label_ndNH_bias", 
      "attrs": {"num_hidden": "1"}, 
      "inputs": []
    }, 
    {
      "op": "FullyConnected", 
      "name": "label_ndNH", 
      "attrs": {"num_hidden": "1"}, 
      "inputs": [[5, 0, 0], [6, 0, 0], [7, 0, 0]]
    }, 
    {
      "op": "null", 
      "name": "ndNH", 
      "inputs": []
    }, 
    {
      "op": "elemwise_sub", 
      "name": "_minus10432", 
      "inputs": [[8, 0, 0], [9, 0, 0]]
    }, 
    {
      "op": "_power_scalar", 
      "name": "_powerscalar10432", 
      "attrs": {"scalar": "2.0"}, 
      "inputs": [[10, 0, 0]]
    }, 
    {
      "op": "sum", 
      "name": "sum10432", 
      "inputs": [[11, 0, 0]]
    }, 
    {
      "op": "mean", 
      "name": "mean10432", 
      "inputs": [[12, 0, 0]]
    }, 
    {
      "op": "_plus_scalar", 
      "name": "_plusscalar10432", 
      "attrs": {"scalar": "1e-05"}, 
      "inputs": [[13, 0, 0]]
    }, 
    {
      "op": "broadcast_div", 
      "name": "broadcast_div10432", 
      "inputs": [[12, 0, 0], [14, 0, 0]]
    }, 
    {
      "op": "add_n", 
      "name": "elementwisesum20865", 
      "attrs": {"num_args": "1"}, 
      "inputs": [[15, 0, 0]]
    }, 
    {
      "op": "_div_scalar", 
      "name": "_divscalar20865", 
      "attrs": {"scalar": "1.0"}, 
      "inputs": [[16, 0, 0]]
    }, 
    {
      "op": "add_n", 
      "name": "elementwisesum20864", 
      "attrs": {"num_args": "1"}, 
      "inputs": [[14, 0, 0]]
    }, 
    {
      "op": "_div_scalar", 
      "name": "_divscalar20864", 
      "attrs": {"scalar": "1.0"}, 
      "inputs": [[18, 0, 0]]
    }, 
    {
      "op": "broadcast_mul", 
      "name": "broadcast_mul10432", 
      "inputs": [[17, 0, 0], [19, 0, 0]]
    }, 
    {
      "op": "MakeLoss", 
      "name": "makeloss10432", 
      "attrs": {
        "normalization": "valid", 
        "valid_thresh": "1e-06"
      }, 
      "inputs": [[20, 0, 0]]
    }, 
    {
      "op": "BlockGrad", 
      "name": "pred-ndNH", 
      "inputs": [[8, 0, 0]]
    }
  ], 
  "arg_nodes": [0, 1, 2, 6, 7, 9], 
  "node_row_ptr": [
    0, 
    1, 
    2, 
    3, 
    4, 
    5, 
    6, 
    7, 
    8, 
    9, 
    10, 
    11, 
    12, 
    13, 
    14, 
    15, 
    16, 
    17, 
    18, 
    19, 
    20, 
    21, 
    22, 
    23
  ], 
  "heads": [[21, 0, 0], [22, 0, 0]], 
  "attrs": {"mxnet_version": ["int", 10400]}
}